data.pth (torch, 7146 bytes, 6 tensors)

l1.weight f4 [8, 86]
0	0x3e1f1343	0.15534692
1	0x3f8bfebd	1.0937115
2	0xbd5870a0	-0.052841783
3	0x3e15a49f	0.14613579
4	0xbe6dc124	-0.23218209
5	0x3f2f7097	0.68531173
6	0x3f166a61	0.5875607
7	0x3de8ae56	0.11361377
8	0x3f430162	0.76173985
9	0xbed98207	-0.42482015
10	0xbda3df3d	-0.08001564
11	0xbf08d035	-0.534427
12	0x3ddac587	0.106822066
13	0xbd83758b	-0.06418904
14	0xbd5386f4	-0.051642373
15	0xbe141595	-0.14461358
16	0x3f1a103f	0.6018104
17	0x3e811af2	0.2521587
18	0xbf74f2c4	-0.9568293
19	0x3f1adf7a	0.6049725
20	0x3e3c8844	0.18411356
21	0xbeca4e95	-0.39513078
22	0xbe2a4543	-0.16627984
23	0xbe9c5fed	-0.30541936
24	0x3ed7b38b	0.42129168
25	0xbee00749	-0.43755558
26	0xbe2b99c9	-0.16757883
27	0x3e92c368	0.28664708
28	0xbdf152ec	-0.11783394
29	0x3f80eed9	1.007289
30	0x3f552f5c	0.8327539
31	0xbf25adf0	-0.6471853
32	0x3f5b2030	0.8559599
33	0x3f85960a	1.0436413
34	0x3f3a9a65	0.7289184
35	0xbd31cd37	-0.0434086
36	0xbd12f3ba	-0.035876967
37	0xbeb9b2fd	-0.3626937
38	0xbdb01830	-0.085983634
39	0xbd46a4b9	-0.048496936
40	0xbdaddbba	-0.08489175
41	0xbf1594f1	-0.5843039
42	0xbea3b11b	-0.31971058
43	0xbe19da24	-0.1502462
44	0x3f0fd302	0.5618135
45	0xbe3f29b0	-0.18668246
46	0x3ef46553	0.47733554
47	0x3e09d429	0.13459839
48	0xbf4a1483	-0.7893755
49	0xbf0a75d7	-0.5408606
50	0x3fcb0c75	1.5863177
51	0xbee05d31	-0.438211
52	0xbe3a1f88	-0.1817609
53	0x3c89ea74	0.016835429
54	0xbe361b86	-0.17783937
55	0xbeb10e74	-0.3458134
56	0x3f2b3830	0.6688261
57	0xbe38badc	-0.18040031
58	0xbe18d440	-0.14924717
59	0xbea0a6e1	-0.31377319
60	0x3eab927c	0.33510196
61	0xbebecf30	-0.37267447
62	0xbf8642c1	-1.0489122
63	0xbd9ba3e0	-0.07599616
64	0xbf49ff8b	-0.7890555
65	0x3f962682	1.1730502
66	0x3d00d50b	0.031453174
67	0xbeadd58c	-0.33951986
68	0xbed9685f	-0.4246244
69	0x3f533f90	0.82518864
70	0xbe827b5c	-0.2548474
71	0xbe0b4723	-0.13601355
72	0xbdb23680	-0.08701801
73	0x3e1a5d0c	0.15074557
74	0x3f33fe8f	0.703103
75	0x3eb222cc	0.34792173
76	0x3e614fea	0.22003141
77	0x3de4234b	0.11139544
78	0xbeb7d98a	-0.35908157
79	0x3f14487e	0.57923114
80	0x3f92a815	1.1457545
81	0x3e85accd	0.261084
82	0xbf4410ce	-0.7658814
83	0x3e054afc	0.13016886
84	0xbe803847	-0.25042936
85	0x3f5c4d7b	0.86055726
86	0x3f3b32d1	0.73124415
87	0x3ef0fbc4	0.47067082
88	0xbdeeaea2	-0.11654402
89	0x3f05c2a3	0.5225012
90	0xbe4bc67f	-0.19899939
91	0x3fc4d6f3	1.5378097
92	0x3f59b22c	0.85037494
93	0x3d9ad6b5	0.07560483
94	0x3f22e3ba	0.63628733
95	0xbe4fd79b	-0.2029709
96	0xbc9b3c71	-0.01894972
97	0xbf299f4c	-0.6625869
98	0x3e667f3a	0.2250947
99	0x3c73b326	0.014874255
100	0xbdb25a69	-0.087086506
101	0xbe545bc6	-0.20738134
102	0x3f37d02e	0.7180203
103	0x3ec6b278	0.38808036
104	0x3f8ad71f	1.08469
105	0x3f09c25f	0.5381221
106	0x3f15b363	0.5847685
107	0x3c943af0	0.01809451
108	0xbe755daf	-0.23961519
109	0xbee461a1	-0.44605735
110	0x3f4235f5	0.7586358
111	0xbf0db774	-0.5535805
112	0xbe838225	-0.2568523
113	0x3f2c0ca9	0.6720682
114	0xbe9a5088	-0.30139565
115	0x3f9e17d6	1.2351024
116	0xbe869a67	-0.26289675
117	0xbf1c7c74	-0.611274
118	0x3f9899b3	1.1921905
119	0x3fa600f9	1.2969047
120	0x3f77f76f	0.9686193
121	0x3f4041dc	0.75100493
122	0xbdb63e9b	-0.0889866
123	0xbebae94f	-0.36506125
124	0xbe06a956	-0.13150534
125	0x3dbf5124	0.09341648
126	0x3e5aaa5b	0.21354048
127	0xbf41efe3	-0.75756663
128	0xbe90305c	-0.28161895
129	0xbe32d6fe	-0.17464826
130	0x3ee7be75	0.45262495
131	0x3d42f629	0.047598038
132	0x3f38e4bc	0.7222402
133	0x3d85502d	0.06509433
134	0xbf8a59d8	-1.0808668
135	0xbef8f6fc	-0.48625934
136	0x3e316a24	0.17325646
137	0x3d1e718b	0.0386825
138	0xbed6d429	-0.4195874
139	0xbdc3e580	-0.09565258
140	0x3e40340e	0.18769857
141	0xbd07da83	-0.033167373
142	0x3f30c53e	0.6905097
143	0xbe96af60	-0.29430676
144	0x3e117e5a	0.14208356
145	0xbe3b2c5c	-0.1827864
146	0x3f0c1ddd	0.5473307
147	0xbf03e3ca	-0.51519454
148	0x3e527209	0.20551313
149	0xbd2a7b2b	-0.04162137
150	0xbf817cc8	-1.0116205
151	0x3d36bb66	0.04461231
152	0x3e9002df	0.2812719
153	0xbedcc776	-0.43120927
154	0xbe42f72b	-0.190396
155	0x3fa0a6ac	1.2550864
156	0x3cc31418	0.023813292
157	0x3d96672b	0.073438965
158	0x3e290122	0.16504338
159	0xba4aedfb	-0.00077411503
160	0xbe6b3e19	-0.22972907
161	0x3e8cc43c	0.27493465
162	0x3ef3d2a8	0.47621655
163	0x3f0c4785	0.5479663
164	0xbee33895	-0.44379106
165	0x3f273740	0.6531868
166	0x3eb34284	0.35011685
167	0x3ef868dc	0.485175
168	0xbf196e55	-0.5993398
169	0x3e2f1164	0.17096478
170	0xbe50cc8f	-0.20390533
171	0xbf03dab0	-0.51505566
172	0xbe16076c	-0.14651269
173	0x3f771a09	0.965241
174	0x3f399fcf	0.72509474
175	0xbeaf9cd3	-0.34299335
176	0x3e5ec874	0.21756154
177	0xbf235e07	-0.6381535
178	0xbe4c404c	-0.19946402
179	0x3eba0f72	0.3633991
180	0x3f79bf1b	0.9755723
181	0xbe0f08e4	-0.13968235
182	0xbcd43dbf	-0.02590835
183	0x3d8926cf	0.06696855
184	0x3e6a1531	0.22859646
185	0x3d8a9b0e	0.067678556
186	0xbba61701	-0.0050686602
187	0x3e103727	0.14083539
188	0x3e8a75ef	0.270431
189	0xbdc05c8c	-0.09392652
190	0xbf4cf336	-0.8005861
191	0x3f46a35c	0.77593017
192	0xbe8770c0	-0.2645321
193	0xbcf2b5b3	-0.029627657
194	0x3eac7af9	0.3368757
195	0x3f390818	0.72277975
196	0x3ef0ff8b	0.47069964
197	0xbe26dcdd	-0.1629519
198	0x3da1b2a2	0.078954
199	0x3d4d1459	0.050068233
200	0x3e79df3c	0.24401563
201	0x3f0554a0	0.5208225
202	0x3f54127e	0.82840717
203	0x3f2ba384	0.6704638
204	0x3efab629	0.48967102
205	0x3f0b6519	0.5445114
206	0xbe95c84e	-0.29254383
207	0xbe55e60f	-0.20888542
208	0xbe7d69fc	-0.24747461
209	0x3eb3468e	0.35014766
210	0x3e1fcc0b	0.1560518
211	0xbcb03137	-0.021507842
212	0xbeb47cfc	-0.35251606
213	0x3ef369dc	0.47541702
214	0x3dad56d3	0.08463826
215	0x3d292b3f	0.04130101
216	0x3ead009f	0.33789536
217	0xbdbd4ba5	-0.09242944
218	0xbe48c107	-0.19604884
219	0x3e99b519	0.3002098
220	0x3f15fc8d	0.58588487
221	0xbf279a9a	-0.6547028
222	0x3fa7db30	1.3113766
223	0xbe4b0596	-0.1982635
224	0xbd18cb91	-0.03730351
225	0x3d83551a	0.06412716
226	0xbd278c26	-0.04090514
227	0x3f48d7a8	0.78454065
228	0x3deba395	0.1150581
229	0x3de9ed91	0.11422265
230	0xbe328f5e	-0.17437503
231	0x3f3f2c30	0.746768
232	0x3cb0f39b	0.021600535
233	0x3ed45701	0.4147263
234	0xbf4bf2cf	-0.7966737
235	0x3cb1f306	0.021722328
236	0xbf4beb42	-0.7965585
237	0x3f7798fc	0.9671781
238	0x3dd42e22	0.10360362
239	0x3f2d4220	0.67679024
240	0xbe1a0b80	-0.1504345
241	0xbf107235	-0.56424266
242	0xbe15f022	-0.14642385
243	0xbe659616	-0.22420534
244	0x3cecefce	0.028922942
245	0x3e84958d	0.25895348
246	0x3f76bea8	0.9638467
247	0x3f0084f3	0.50202864
248	0x3dc948ab	0.098283134
249	0xbf017a18	-0.50576925
250	0x3c9e0089	0.019287365
251	0xbd54d4f6	-0.051960908
252	0x3f84a34c	1.0362334
253	0x3e0db18f	0.13837264
254	0x3f469f71	0.7758704
255	0x3da4a9ec	0.080402225

l1.bias f4 [8]
0	0x3f16f8fa	0.5897366
1	0x3f2416a4	0.64097047
2	0x3f505f54	0.8139546
3	0x3f3c6489	0.73590904
4	0x3f14cdd5	0.58126575
5	0x3f6b60cc	0.91944575
6	0x3f553f17	0.8329939
7	0x3f57fed8	0.84373236

l2.weight f4 [8, 8]
0	0x4010796d	2.2574112
1	0x3f908ac3	1.1292347
2	0x3f904f2a	1.1274159
3	0xbf4abbcf	-0.79192823
4	0x3cdfc87e	0.027317282
5	0x40072c87	2.1120927
6	0x3e27221b	0.16321604
7	0x3f539aa0	0.82657814
8	0xbdb25394	-0.087073475
9	0x3fad8e77	1.3559102
10	0xbf81566c	-1.0104499
11	0x3d2b1535	0.04176827
12	0xbd68d91d	-0.05684768
13	0xbe8e1194	-0.27747786
14	0x3fb9edf1	1.4525739
15	0x3f32d4d6	0.6985601
16	0xbf4bbfd3	-0.79589576
17	0x3ecabe39	0.39598253
18	0xbf995449	-1.1978847
19	0x3fed04ab	1.851705
20	0x3eed290a	0.46320373
21	0x3f574cce	0.8410157
22	0xbe6af609	-0.22945417
23	0xbd3627b7	-0.04447147
24	0xbfae7f9c	-1.3632693
25	0xbe2c4190	-0.16821885
26	0xbe093eb2	-0.13402823
27	0x3fb5c518	1.4200773
28	0xbf983288	-1.1890421
29	0x3f34aa7e	0.7057265
30	0x3f0674c1	0.525219
31	0xbf4444c7	-0.76667446
32	0x3e383736	0.17989811
33	0x3da51fa5	0.08062676
34	0xbdb47dfc	-0.08813092
35	0x3d16b782	0.0367961
36	0xbe725f59	-0.23669185
37	0xbe6d98be	-0.23202798
38	0xbeac418b	-0.33643755
39	0xbdd62ad4	-0.104573876
40	0xbf8121af	-1.0088404
41	0xbf391eca	-0.72312605
42	0x3f38d2ed	0.7219685
43	0x3ef2c5db	0.47416577
44	0x400421a9	2.0645545
45	0xbf46eb1c	-0.777025
46	0x3f896f80	1.0737152
47	0x3f78436e	0.9697789
48	0x3fcfb4b0	1.6227016
49	0x3fc4bd88	1.537034
50	0x3f02c6ac	0.510844
51	0xbe69b3d8	-0.22822511
52	0xbf180b62	-0.5939237
53	0xbe565340	-0.20930195
54	0x3f497301	0.7869111
55	0x3f9b5c2b	1.2137502
56	0xbe1a1166	-0.150457
57	0x3e54be3e	0.20775697
58	0xbdba9c78	-0.09111875
59	0xbd1e8430	-0.038700283
60	0xbe41a711	-0.18911387
61	0xbead9011	-0.33898976
62	0xbe31d7ca	-0.17367473
63	0x3d00c7d8	0.031440586

l2.bias f4 [8]
0	0x3e79e228	0.24402678
1	0xbee8d71e	-0.4547662
2	0x3f3cf391	0.7380915
3	0x3eb28deb	0.348739
4	0xbd859ed1	-0.065244325
5	0x3ea2400a	0.31689483
6	0x3ec074cc	0.3758911
7	0xbe5c390c	-0.21506137

l3.weight f4 [13, 8]
0	0x3f03a47d	0.51422864
1	0xbed5e018	-0.41772532
2	0xc013189f	-2.2983778
3	0xbfb35bbc	-1.401237
4	0xbe9c951d	-0.30582514
5	0x3f098bbc	0.5372884
6	0xbe868beb	-0.26278624
7	0xbe26a6fd	-0.16274638
8	0xbeb9a0b0	-0.36255407
9	0x3f75c058	0.9599662
10	0xbf202db8	-0.6256976
11	0xc0067544	-2.1009073
12	0x3d74b289	0.059740577
13	0xbfb8d0d2	-1.4438727
14	0x3e9f70aa	0.31140643
15	0x3e7e4daa	0.24834314
16	0xbfbae3c6	-1.4600761
17	0x3f28e635	0.6597627
18	0x3ccd7a41	0.02508271
19	0xbfdb066e	-1.7111337
20	0x3e6cbbfe	0.23118588
21	0x3d6b4fd1	0.057449166
22	0x3e14186d	0.14462443
23	0xbe0b2de8	-0.1359173
24	0xc0043811	-2.065922
25	0xbf972981	-1.1809541
26	0x3e8436f3	0.25823173
27	0x3f3a7487	0.72834057
28	0x3e52158b	0.2051603
29	0x3e1bae2f	0.15203165
30	0x3e630f6e	0.22173855
31	0xbeae97a9	-0.34100083
32	0xbde25651	-0.1105162
33	0xbfed8a0c	-1.8557754
34	0x3ef8c910	0.485909
35	0xc01137c3	-2.2690284
36	0x3dbf9ff7	0.09356683
37	0x3f3d2b4a	0.7389418
38	0xbf059a59	-0.5218864
39	0x3dff89b4	0.12477437
40	0x3f1dc2c1	0.61625296
41	0xbf669f58	-0.9008689
42	0xc0145f75	-2.3183262
43	0xbfafb891	-1.37282
44	0x3e787e6c	0.24266976
45	0xbfc82e20	-1.5639076
46	0x3f35f63b	0.7107884
47	0x3e0c9dbc	0.13732046
48	0xbf8bbb72	-1.0916579
49	0xbdb33dd8	-0.0875203
50	0xc00d534d	-2.2082093
51	0xc015ed7c	-2.34262
52	0xbe83a83b	-0.25714287
53	0x3fa23654	1.267283
54	0x3c73626c	0.014855009
55	0xbeab1c59	-0.33420065
56	0xbfb84ac5	-1.4397818
57	0xbf684f72	-0.90746224
58	0x3f9362b5	1.1514498
59	0x3f9a883a	1.2072823
60	0xbe62b7f2	-0.22140482
61	0xbff939e0	-1.9470787
62	0xbf8ae46a	-1.0850956
63	0xbe696ae6	-0.22794685
64	0x3eac31d4	0.33631766
65	0xbfd13e92	-1.634722
66	0x3eece550	0.46268702
67	0x3da08114	0.0783712
68	0xbdfa2dc0	-0.12215757
69	0xbea94fd8	-0.33068728
70	0xc01e6065	-2.4746335
71	0x3e1c4436	0.15260395
72	0xbf27a353	-0.6548359
73	0x3eb98518	0.36234355
74	0x3ed09945	0.40741935
75	0x3eaed162	0.3414412
76	0x3e87575d	0.2643384
77	0xbf8dce58	-1.1078596
78	0xbe52c3fb	-0.20582573
79	0x3e0de12c	0.13855428
80	0xc028f448	-2.6399097
81	0x3f24277d	0.64122754
82	0x3ee9c0d7	0.45654938
83	0xbf3f828c	-0.74808574
84	0x3e532a53	0.20621614
85	0x3f5af6c0	0.8553276
86	0xc00cdb4f	-2.2008855
87	0xbda33344	-0.079687625
88	0x3e0073be	0.12544152
89	0x3c91126d	0.017708981
90	0x3f00ef18	0.5036483
91	0xbf23e22a	-0.64016974
92	0xbe704967	-0.23465501
93	0xc033b6da	-2.8080354
94	0x3d1fae62	0.038984664
95	0x3e8e45c3	0.277876
96	0x3f3267ae	0.6968945
97	0xc065eadf	-3.5924604
98	0xbed6e15b	-0.41968808
99	0xbfb7a0ad	-1.4345909
100	0xbe952ee6	-0.29137343
101	0xbe2e3a93	-0.17014532
102	0x3ee9f09b	0.4569138
103	0x3e8c6627	0.27421686

l3.bias f4 [13]
0	0xbec1e9b6	-0.3787362
1	0xbe1c38a1	-0.15255977
2	0xbeadb56a	-0.3392747
3	0xbdc289c1	-0.09498931
4	0x3ef21ad8	0.47286105
5	0x3e880be8	0.26571584
6	0x3d7ca703	0.061682712
7	0x3d9340dd	0.07190106
8	0xbe6386e5	-0.22219427
9	0xbec0f0a4	-0.37683594
10	0x3eaebe72	0.34129673
11	0x3e1f0e30	0.15532756
12	0xbdacadb7	-0.08431571
